modelo_mlp.npz (npz, 2582 bytes, 6 tensors)

w1 f8 [6, 10]
0	0x3f5c944e3c7b7877	0.001744343187901202
1	0x3fc329a2572ee388	0.14970807320585444
2	0xbff123be2d21e2f7	-1.0712262881262953
3	0xbfc61fbbf8816c60	-0.17284345277843993
4	0x3fd3e4978085b429	0.3108271365261453
5	0xbff234a715d565b4	-1.1378546574472752
6	0xbff9224879bc30bb	-1.5708698992994374
7	0xbfa2b22c809656e3	-0.0365156084982752
8	0x3feb97aa1b3eff29	0.862263730254175
9	0xbfde8ca83f7db5d8	-0.47733503532694277
10	0x3ff427093992b636	1.2595302819203318
11	0xbfe93f3a36f805e9	-0.7889681886301193
12	0xbfdcbfa433fd9faa	-0.44919686391085156
13	0x3ff4c6bfd594a3aa	1.2985227911942538
14	0x3fb605f119f9dabe	0.08602816471271077
15	0x3fe86f001809a7b2	0.7635498494612334
16	0x3faf9b2671f22089	0.0617305769056325
17	0xbff77d16d908ce43	-1.4680393674760956
18	0x3fb07c59a1faa055	0.06439743237081193
19	0xbfdd7ee0b7b0eb3b	-0.460869006524877
20	0x3fda1567a78e0568	0.40755645144243724
21	0xbfcdef3c1ff8b780	-0.23386336861716117
22	0x3ffb1203836eb690	1.6918978818970665
23	0x3fedd059b2ed53c5	0.9316833967846995
24	0x3fd7ad926887e9b7	0.369968988495795
25	0xbff82961e71ef567	-1.5101031330262573
26	0xbff02f634dfbf094	-1.0115693136458832
27	0xbfa8aff386d1b1aa	-0.048217401702319876
28	0x3fe1d6356192fa9f	0.5573985009903771
29	0x3fea4b40c1d8377d	0.8216861520793227
30	0xbfc04971afcd1306	-0.12724133571659751
31	0x3ff259653abfdb62	1.1468250555896806
32	0x3fdef9b093a968dd	0.48398985309689896
33	0x3fd870ae072ab05d	0.3818774290073231
34	0x3ff9298446188f5a	1.572635911762481
35	0xbfe3b5ca99d8e0ac	-0.6159413342311573
36	0x3fcf0649a582c129	0.24237938481884072
37	0x3f99f3f0b97ea1f1	0.025344621011443583
38	0xbfa76b740a060fdf	-0.04574167845115062
39	0x3fe921b6c002d429	0.7853654623237435
40	0x3ff5f6b22be2a979	1.3727285112641694
41	0xbfe264931d052bfb	-0.574777180366595
42	0x3fd638d46d6c8114	0.3472186153976662
43	0xbfe9dde5e6248efa	-0.808337163446111
44	0xbfe90617ab8f2ac5	-0.7819937086836367
45	0xbfed0065bd5e081d	-0.9062985132770823
46	0x3fdd8213223134b6	0.4610641321094805
47	0x3fecb1b6686eb0a8	0.8966934241957647
48	0xbfe7ea870033b960	-0.7473788265176999
49	0x3ff8cfeb1ca410f9	1.5507613295349627
50	0xbff44caf14034a25	-1.2687216550590474
51	0x3ff647cc970d1c0d	1.3925290966451513
52	0x3fd9d7da1a566ada	0.4037995583727657
53	0xbfcf37e4841fc01a	-0.24389320803993614
54	0xbffbdbb224becd89	-1.7411366877903183
55	0xbf97d0eaac4c35eb	-0.023257891432015326
56	0xbfeeebf26e0b8731	-0.9663021230046295
57	0xbfdd079427d0750a	-0.45358756912340026
58	0x3fee18ae76ca3716	0.940512878428964
59	0xc0029e571f99c5cf	-2.3273146122744275

b1 f8 [1, 10]
0	0x3fc995e8d89534b2	0.19988737655004268
1	0xbfbb53e95bd4cdf7	-0.10674913875555335
2	0xbfc140b1299957df	-0.134786744415293
3	0x3fa2658eeed8da57	0.035931078582895175
4	0xbfc388f05a8fc42a	-0.15261654302551736
5	0xbfb7d1f6d9a8fcbe	-0.09304755033461995
6	0x3fdba87666818def	0.43215713510855286
7	0xbfaffaf5e38baf7b	-0.06246155169159714
8	0x3fb5e6ad506aa2e4	0.08555110181135778
9	0xbfb4dfa59c37dac5	-0.08153758109970528

w2 f8 [10, 6]
0	0x3ff1349092bf1877	1.0753331882747525
1	0xbfde9e4df4112ecd	-0.47841214022330975
2	0xbfe53a66b31feeda	-0.6633790491609617
3	0x3ff636777af570e5	1.3882975390507053
4	0xbfdca9d94143642c	-0.4478667390190505
5	0xbfd6d3e139d3b6ee	-0.3566821160046477
6	0xbfd5f4d99bace559	-0.3430694599406557
7	0xbfe86e785df0c1fc	-0.7634851298117264
8	0x3ffbedcf95df761a	1.745559297028541
9	0xbfda56d12873cfae	-0.4115488905947541
10	0x3ff1def69b506e73	1.1169344012222637
11	0x3ff090895315c4e8	1.0352872128972255
12	0xbfe6673c7b057dec	-0.7001020815623042
13	0x3ff81a27beeedda5	1.5063855608294514
14	0x400329158360bf73	2.3950605644130802
15	0x3fe68a03b46c0a40	0.7043474696986962
16	0xbffee1093f107efe	-1.9299404586271858
17	0xbfef5b7f1baaf9be	-0.9799190082920217
18	0xbfeb5555fdd8968b	-0.8541669805460556
19	0xbfcf9098814a76e0	-0.24660021126776765
20	0xbfda54915241ae23	-0.4114116004263641
21	0x3fb02a0d82beff85	0.06314167444270254
22	0x3fea1296d3f958d5	0.8147691860310952
23	0x3fec7f2d3439d924	0.890524484638068
24	0xbfb645f818f373e7	-0.08700514420657122
25	0x3fffa48be21eb128	1.9776724655922155
26	0x3fdb9ba590c33e18	0.4313749231050408
27	0x3fe4c2db2a647128	0.6487861469245546
28	0x3fd47ea9c83b85d9	0.3202309089084259
29	0x3ff2a41d0a9f6df0	1.1650667586280825
30	0xbff5db9decdb1446	-1.366117406099208
31	0xbfedd61f336dad6c	-0.9323879246198152
32	0x3fe85b2e5be21ba7	0.7611305040926383
33	0xbfd70c7eb7663a31	-0.36013763341989874
34	0x3fe6be223ae8e53d	0.7107096815663351
35	0x3fe7c3a4123d3263	0.7426319462043235
36	0xbfeffdf557e64a26	-0.9997507778919654
37	0xbffa80e171fcade5	-1.6564650013559625
38	0xbfb92e7c317c18bc	-0.0983655567943939
39	0xbfb6b2bd7bdc52ef	-0.08866485856954019
40	0x3fd02182c7334d55	0.2520453400913614
41	0xbffe932fdab9cdd8	-1.9109343093849613
42	0xbfe6e1f1e58dd7db	-0.7150811656454111
43	0x3ff1da773e802a04	1.1158363763266843
44	0xbff7b733e9c357d2	-1.4822272426003917
45	0x3ff1f18a112d5be4	1.1214695616706587
46	0x3fedd8460284dbb7	0.9326505707930356
47	0x3ffa58ea70f05208	1.646707955519675
48	0x3fe6c0bb42a69338	0.711026792695157
49	0xbff7d45dcbf42826	-1.4893472639983059
50	0x3fd15ef5fe5197d4	0.2714209540921477
51	0xbfe1a7362185136d	-0.5516615538295874
52	0x3fdb82e68571837a	0.4298645308645558
53	0x3ff6e0646bbaa766	1.4297832687538743
54	0xbfe5df16f5f66761	-0.6834826282458658
55	0xbfd4c191ea64dc47	-0.3243145741466304
56	0xbfd31fe5accbefe6	-0.29882184862776595
57	0x3fd93ca079d6559c	0.3943253698174318
58	0xbfe311d3b2ccbb59	-0.5959261409933375
59	0xbfb375a66442dd82	-0.07601394603522318

b2 f8 [1, 6]
0	0xbf673c4fce3d2125	-0.0028363760665436493
1	0x3f9e20660596f0f7	0.029420465556300148
2	0x3f5ecf3cec73806f	0.0018804640729328766
3	0x3fc9d3f179da05de	0.20178049516475388
4	0x3fb93ac478b68f22	0.09855297038171476
5	0xbfb90b0605935877	-0.09782445560571938

w3 f8 [6, 1]
0	0x3fcfacc596e00cbf	0.2474600779242788
1	0xbfe3c2b5568bb1de	-0.617518109354531
2	0x3fd55622bc47b5c5	0.3333823050187131
3	0xbff7fe224ed77e40	-1.4995444373852393
4	0xbff55fd81410a297	-1.3358994277752225
5	0x3ff5c6d56c2679fe	1.361043379270654

b3 f8 [1, 1]
0	0xbfb65c77128344e9	-0.08734840585681848
