modelo_mlp.npz (npz, 1614 bytes, 4 tensors)

w1 f8 [6, 10]
000000 af 12 31 f6 db 01 f2 3f 54 60 5e be 36 72 da 3f
       1.1254539124358123 0.4132210597103996
000010 01 e7 b9 b1 cd 90 f1 3f 94 65 ac 01 70 ca f7 3f
       1.0978524153164815 1.4869232240074313
000020 21 e7 79 ac d9 a7 f3 3f cd 08 7c 66 53 dd d3 3f
       1.2284790742255114 0.3103836537194525
000030 0f 63 fa 32 e4 86 aa bf 9b 66 c4 91 e6 17 dd bf
       -0.05181038973132079 -0.45458378062321864
000040 72 2b 77 41 cd e1 f0 3f 3c 31 20 3f 20 a4 fb bf
       1.0551273877378802 -1.7275698152398737
000050 a5 43 df c9 91 f3 f9 bf 95 06 7f 27 98 13 f6 3f
       -1.6219652066831511 1.3797837775058828
000060 6f 54 2e 5d 3a 24 e9 3f 06 50 9e f6 50 90 e4 3f
       0.7856723613682685 0.6426167313352387
000070 35 39 6d 55 e4 25 e6 3f 2c 77 fa 26 59 c2 ee 3f
       0.6921254795541133 0.9612241517349722
000080 4f 79 77 47 c2 07 ed bf b2 17 1e 6f c6 95 c1 bf
       -0.9071971317132838 -0.137383274323097
000090 db 18 9e df e0 97 e3 3f 87 c0 bd 13 3a 99 e0 3f
       0.6122898452311135 0.5187044511385616
0000a0 c4 f4 7b 19 2c eb b4 bf 0a 61 db ff a0 78 04 40
       -0.08171344396756114 2.558900832064073
0000b0 c1 e2 ab 53 f3 8e 02 c0 de d0 a7 da 81 08 da 3f
       -2.319800046618497 0.406769240885536
0000c0 a8 11 d2 e2 32 bc d2 bf 79 82 2f 96 85 18 09 c0
       -0.2927367415470834 -3.1369735463379667
0000d0 a5 50 ea 51 58 20 de bf e0 91 40 1d 9e 51 e8 bf
       -0.47072418212452255 -0.7599630900700127
0000e0 be a0 fe 2f bf 0d df 3f f3 9e e4 5d ad c5 e9 3f
       0.4852140396783503 0.805380519280304
0000f0 77 b9 c7 7a 22 3b e1 bf be 96 a4 78 b0 70 da 3f
       -0.5384685895967739 0.41312801152740153
000100 e8 de 6b d2 bb 14 e2 bf f1 2a b6 3a 30 00 c1 bf
       -0.5650309667389282 -0.1328182493856143
000110 c6 06 4e 8d db 26 eb 3f 91 3e ff 6a 61 f0 f0 3f
       0.8484933624133297 1.058686655003758
000120 2a c6 06 d9 cd 3d e7 bf a3 4f e7 1e 48 92 b2 3f
       -0.7262944449232169 0.07254458193284434
000130 8a 1c e3 f2 ba fe e3 bf b8 36 46 6d cf 37 cc bf
       -0.6248450034990054 -0.2204531940046104
000140 5c d2 38 e6 44 30 f6 3f 5f c7 b4 2e 33 23 e7 bf
       1.386784457497149 -0.7230468666295841
000150 52 7f 89 6e de 40 d4 bf b5 a0 70 0d 75 99 f6 bf
       -0.3164592818702562 -1.412465145587743
000160 23 2d 17 c8 d3 1a c2 bf 18 06 a7 5b d3 a1 ee bf
       -0.14144370336576015 -0.9572541036688476
000170 af 4d 49 0c 33 a6 e4 bf 7e 50 11 e4 e4 8f cf 3f
       -0.645288013455163 0.24657879959216084
000180 bd 5f 4d b1 75 df c3 3f 24 58 35 d5 0a 69 f2 bf
       0.15525694997154274 -1.1506450966312594
000190 65 a3 ee c9 92 2c f8 3f b6 69 72 2e b2 24 f0 3f
       1.510882176206189 1.0089589895566013
0001a0 fe 37 18 de dc f9 fb bf c3 44 32 06 8d 14 f7 3f
       -1.7485016513414844 1.4425173036618595
0001b0 ba 62 3e 2d fe c3 d5 bf 18 24 5e 9a e4 62 f2 bf
       -0.34008745592431533 -1.1491437940587783
0001c0 fd ef 91 42 05 e7 e8 3f 88 a9 f8 ea 53 21 03 40
       0.7782007503697056 2.3912733418594065
0001d0 33 cf 19 d9 48 2b d1 3f db 4a 6b 0b 33 31 bb bf
       0.26826688004733795 -0.106219473159665

b1 f8 [1, 10]
000000 55 72 bf e8 21 45 c1 3f 8d 10 19 48 13 bd a2 3f
       0.13492225517883819 0.03659878020383287
000010 27 f9 74 ae e9 85 90 3f 7a e4 2e 05 ab 52 d4 bf
       0.01613583686161593 -0.3175456572167331
000020 d2 a8 77 5a 7e 1b bc 3f f6 a1 1a fd 75 0b a8 3f
       0.10979451855351677 0.046962439676750664
000030 58 e5 e5 24 bc 43 b5 bf 82 bd 84 c7 92 25 9d 3f
       -0.08306480313139752 0.02846364348186859
000040 a7 21 55 44 53 05 ad 3f 87 86 16 f8 6b b5 ad 3f
       0.056681253520369616 0.05802476313989496

w2 f8 [10, 1]
000000 f8 27 dc a0 25 06 f4 bf 09 73 2d 26 4b 6a d6 bf
       -1.251500728949848 -0.35023764351153425
000010 fb 90 a1 02 65 07 cf bf d2 df b5 6c fb f2 03 40
       -0.24241316441032965 2.493643616962779
000020 5b 40 c7 48 bf 9b e5 bf 82 db ce 7f dd 86 de bf
       -0.6752621098949122 -0.47698152047399145
000030 cf 47 ae bc 45 ad eb 3f bf b9 42 b5 6c 9b e5 bf
       0.8649014172717616 -0.6752227344748504
000040 65 b9 9d b6 11 92 00 c0 41 b5 4c d3 2c fc f6 bf
       -2.0713228480228048 -1.4365661863224235

b2 f8 [1, 1]
000000 4f 2c 17 ab 96 56 d5 bf
       -0.33340994556482867
