models/modelo_mlp.npz (npz, 2582 bytes, 6 tensors)

w1 f8 [6, 10]
00000000: d352 0759 644e d7bf 7c3e f869 6132 f83f
00000010: 9df8 fd25 bef8 8b3f 4768 a5e7 69d9 e9bf
00000020: e73d d8fc d1eb f43f 99ff a850 870d fb3f
00000030: 57d5 b15b dbe3 fa3f b0ff 2e84 99d9 b03f
00000040: 6e17 9ec4 f941 ea3f 87b0 1b2d 7179 02c0
00000050: c754 ecf3 9233 eabf c29c 35e7 1d34 f33f
00000060: 8bed 02e0 ebd5 0540 d6f0 b42f 3620 adbf
00000070: 3c19 5143 be70 eebf b6c3 021f 41c5 ffbf
00000080: 6e8f 3460 d34c f3bf 5861 5c2d 0b5d f63f
00000090: 8613 9a7b c9cc e93f 16e3 03c9 8321 eb3f
000000a0: 2fde 1608 668a ef3f 721c 8562 b7ad e63f
000000b0: b7e5 4156 b48b e8bf 0cee ef5b 1cbe e0bf
000000c0: bf86 cc45 847e c83f c696 7ca9 d96f f63f
000000d0: 597f 9d9c f472 f5bf aaeb 6b66 47fa e73f
000000e0: b5fb 20df af13 f03f bb7f 1ee8 edfe c73f
000000f0: 01db dff0 e8fd d5bf 5742 1731 d075 eb3f
00000100: aeee a1cd 25ee ed3f 8e7a 5ee1 e6d3 f0bf
00000110: 6fb7 9d95 b7d5 f63f 1b87 1571 efc2 b8bf
00000120: 0169 058b a950 a0bf 9b21 b9d8 8c5e e83f
00000130: 2376 b05f 89d0 dc3f 6de7 dbdf 5412 f33f
00000140: 8cd2 b71e 0401 fd3f 92f7 9ae9 3415 f0bf
00000150: 8ed3 7605 5e97 b8bf c632 9490 11cf e53f
00000160: dc1b cd76 08df cf3f fc03 57cf 6aef e5bf
00000170: 1f08 328e 1064 dabf b509 0b97 5241 ee3f
00000180: b40b 042f 50fe eb3f 0ee9 d17a ae47 f23f
00000190: bd53 00d7 beea e2bf 10ed 1907 c5fc e53f
000001a0: 9e05 0169 c79d e73f cad3 16e4 a205 de3f
000001b0: a844 d54c 0fd3 f4bf b409 3527 0a48 ef3f
000001c0: e7eb 1965 902d f5bf 7a8a 2e2d c064 e3bf
000001d0: dfbd fc59 7c3c e13f 6209 8f1e 291e ffbf
-0.36415966695976215 1.5122999324265995 0.013658032926965819 -0.8077897571886375 1.3075733067270165 1.6908028746401895 1.680629118139526 0.06582030751360324
0.820553668993609 -2.309297897727507 -0.8187956585049044 1.2002238303773969 2.729453802193978 -0.056886380504211395 -0.9512625994473534 -1.9856578074797944
-1.206256271173483 1.3977157375248535 0.8062484182452045 0.8478411604001816 0.9856443555826838 0.7087056087701866 -0.7670537647929255 -0.5232068820618578
0.1913609829726308 1.4023071880887286 -1.3405653112203793 0.7493016243382631 1.0048063961000768 0.18746732553426945 -0.343622431973401 0.8581315001302511
0.935320760370322 -1.051733856532937 1.4271770328882345 -0.09672447691766843 -0.031865404339173516 0.761541770255508 0.4502280649629446 1.1919754738323391
1.8127480697559433 -1.0051774144371604 -0.09605968125727157 0.6815269302183757 0.2489939289173141 -0.685475735626937 -0.41235746275208557 0.9454739522992016
0.8747940939214147 1.142500381246069 -0.5911554526561457 0.6871056688973187 0.7380101252421587 0.4690940120156567 -1.3015282632152694 0.9775439039006444
-1.32362403385809 -0.6060486681420365 0.5386335141719732 -1.9448634332371388

b1 f8 [1, 10]
00000000: c3db 79f7 f558 c83f b6f4 ba45 5b1b a7bf
00000010: 6148 a0c9 c25d c53f 089f 2c7a c0b8 be3f
00000020: 4028 fc15 3562 b43f 4fc2 b73b b173 a9bf
00000030: 7a31 6553 cefb a03f 093d a94f 7ec8 b93f
00000040: eccf 14f7 e063 b1bf bdb6 a105 dba4 cf3f
0.19021486839093713 -0.04513058878135594 0.1669238552572692 0.12000658972521816 0.07962352549307727 -0.049710787334224286 0.0331711270142447 0.10071553654528399
-0.06793027908571475 0.24721849226937379

w2 f8 [10, 6]
00000000: b2ec e5c9 2e78 b7bf 093f 8537 3374 e03f
00000010: 410d 1563 35b0 f23f 4a30 d0bf 5c12 f2bf
00000020: f541 0c15 a8c3 ffbf a464 f90c b8a3 e8bf
00000030: a23d 82d2 a661 fc3f cb29 6e83 a903 f63f
00000040: a000 5c4f 16ad e83f 4f76 a2d5 b3ca e53f
00000050: fd41 5a2e 5702 d2bf 69f8 855e 8752 f1bf
00000060: 8f6e 8bf2 8b54 d23f 08d7 aa88 2aa4 f33f
00000070: 083f bd68 f7b5 abbf c77e ca69 b75a f5bf
00000080: 9e76 98ee c2aa f93f 5951 7041 09e5 f2bf
00000090: 464d b543 536c b73f 10bb fcd2 f66c e73f
000000a0: a5e9 59cd 449f d83f a569 c2c0 3052 903f
000000b0: 8de9 f6c0 72c0 c8bf 4f8d 146c 5cda f3bf
000000c0: dbf8 f5d7 b7e1 e8bf 632e 85b6 c938 e53f
000000d0: 1cd7 cdf4 d7d4 f03f 968a 534e b701 dfbf
000000e0: 7aac f8c7 eb93 ed3f 2957 b5d8 e2b8 00c0
000000f0: a158 216d 6446 ed3f 19e3 0cbb b74c af3f
00000100: b589 5d84 a7f8 bc3f 2692 7aa3 b2ba e03f
00000110: 40eb cd76 43e8 f3bf f2e4 24ef 2d4f bf3f
00000120: 8c76 5a28 5d4c cb3f 5f48 929a 54dd 0040
00000130: e6dc b621 fc95 ae3f 7677 c0da 817a c53f
00000140: 6c8f 2b89 69d5 f63f 3f3c 2bba a791 e13f
00000150: 8a6c c567 3c78 edbf ec3a bf67 1934 d1bf
00000160: f785 ec2a a953 c3bf 9c9b 832e 267c e8bf
00000170: bcf1 f07d a8ef a0bf e8cc 29c1 2f27 c83f
00000180: c344 75d4 4cf3 d23f 8fec 3ecd baa8 e93f
00000190: 0a0f 7030 3f0c dcbf c708 d212 ea63 f63f
000001a0: f31c 65cf ac90 ee3f e958 42f5 0cbd ab3f
000001b0: cdd5 ffea d111 efbf f8b5 3c8c 48fb de3f
000001c0: 6527 c619 8f43 d93f 2f14 688e 43d2 bf3f
000001d0: 3a91 ee6e 26a2 03c0 5422 96aa 19ff edbf
-0.09167759350923424 0.5141845783600455 1.1680196638488527 -1.1294829838470997 -1.9852677175696247 -0.769985223140925 1.7738407347677385 1.375894082450588
0.7711288022983531 0.6809939549018028 -0.2813928558980761 -1.082648629409528 0.28641031919480836 1.2275796259468184 -0.054122668777038696 -1.334647572752077
1.6041898079051076 -1.1809170299721556 0.09149666216881255 0.7320512886852573 0.3847209935553571 0.015938531651593774 -0.19337305471510682 -1.2408107969175324
-0.7775534837708408 0.6631821217392367 1.0519637644442303 -0.48447973870330807 0.924306765145402 -2.090276425394127 0.9148428088617672 0.061132184584897505
0.1131691644818947 0.5227902596421401 -1.2442049637599695 0.12230193222503141 0.2132679411924311 2.108071525181955 0.05973804389525998 0.16780112439385747
1.4271025999268785 0.5490301738844962 -0.9209272410183911 -0.268804885211394 -0.15099062534231653 -0.7651549252012617 -0.03307844674461388 0.18869587833214685
0.2960998606477682 0.8018468865115141 -0.4382474873566343 1.3993931517766656 0.9551605272944513 0.05417671674620001 -0.9709252919989751 0.4840871209624704
0.3947484733295055 0.1243021223709355 -2.4541748682551345 -0.9373901683584998

b2 f8 [1, 6]
00000000: 87ee 19fc c269 9bbf c359 42dc c93d c33f
00000010: 2a1c f11a 3578 b2bf 7195 4684 d6e6 b5bf
00000020: b53e 8194 a9f9 9f3f d0c3 187d dd00 a8bf
-0.02677063621238898 0.150323135898999 -0.07214672000655811 -0.08555355767619745 0.0312258240595031 -0.04688160087642468

w3 f8 [6, 1]
00000000: 3bf3 dd32 e6f4 f03f a85d de11 2ad5 e6bf
00000010: 4106 8982 5e46 c1bf 4216 dfa0 ec82 0740
00000020: 8c42 d904 c7a7 e43f 5d69 26a0 a685 fcbf
1.0597898470870877 -0.7135210370060365 -0.1349599969271811 2.938927895362924 0.6454806418133372 -1.7826296096669332

b3 f8 [1, 1]
00000000: 2abe e8fc 6cc2 cebf
-0.24030840252952262
