models/modelo_mlp.npz (npz, 2582 bytes, 6 tensors)

w1 f8 [6, 10]
00000000: c3e7 cce0 2444 f4bf 1d9e 6254 0437 e0bf
00000010: d914 5a61 2074 e73f 57d3 4733 501b cdbf
00000020: dae5 dff9 bbb4 e13f e565 0840 dc75 fe3f
00000030: d9b3 5fba 4bec e6bf 7b79 22d5 3396 f03f
00000040: 245d 1e31 a96f 00c0 6222 3a04 545e e5bf
00000050: 8f84 5a19 14b0 eebf d605 8d06 fed5 f1bf
00000060: c176 08ed 9896 f2bf 400b 2686 8823 f03f
00000070: 44a5 2f28 0ae5 f6bf 1f56 ef6a a5a9 efbf
00000080: 79bb 9997 74c9 de3f 37f0 59c4 2c71 e9bf
00000090: 9a74 d43a 533c f03f 087a d1fe 9392 e9bf
000000a0: d22f 0688 c158 d5bf 748d 0fa6 bfe4 07c0
000000b0: 26fd 908d 62a9 863f c356 5a3a 9350 c23f
000000c0: 1983 45a9 b67c f0bf e216 0fbd 8d8c e43f
000000d0: ac5d 1596 746d cdbf dfeb 257e cf8c f3bf
000000e0: f418 8d07 ac6c f13f 8540 f059 7c80 07c0
000000f0: 72ca bfc8 3f1b f33f e777 3607 cfb0 eabf
00000100: f576 4493 6378 e43f 7c40 5bbc 442d f23f
00000110: 20fa ba3d 45e2 ff3f bc3d f542 92db eabf
00000120: f552 8014 99a7 ec3f 0016 fdb7 2a4c fd3f
00000130: b424 f354 72a2 efbf 9e0e 9530 e7e7 01c0
00000140: 41e5 7cfc 7deb f4bf c403 4052 a034 d2bf
00000150: d81d 414c 9ba4 0140 93f7 d082 1e41 d83f
00000160: d9a5 4915 d9cc dd3f c36d 941c 974b d9bf
00000170: 351e 7700 9f1d c33f ea86 2cd2 fbac ddbf
00000180: 4274 eb91 eede d8bf 000a 0bb2 bc63 e93f
00000190: 86b1 3b17 b312 edbf f885 d562 4304 c0bf
000001a0: df76 f6ca 0eaa eb3f 3fc1 a6cd d009 e93f
000001b0: 7f3e 5948 9ab8 e93f 2a60 22c1 4ab9 f43f
000001c0: 10ee fcdb 74e0 e13f 27d5 e035 b3a9 e3bf
000001d0: a027 fd92 ebcc f1bf a971 3472 9012 f9bf
-1.2666367322221823 -0.506715931715863 0.7329255963710707 -0.22739603523191462 0.5533122902262975 1.9037745000153958 -0.7163447036851905 1.0366705251286408
-2.0545219266310983 -0.6677646715698524 -0.9589939589678965 -1.1147442108052608 -1.1617669352630602 1.0086751213245435 -1.4309178895731103 -0.9894587601253909
0.48104586415040945 -0.7950652918802977 1.014727811626733 -0.7991428353232672 -0.3335422352181442 -2.986693665837885 0.01106526369596723 0.14308395718824415
-1.0304476368111806 0.6421574299390296 -0.22990281418127034 -1.2218775680219023 1.0890312476126924 -2.937737181324396 1.1941526262059168 -0.8340830937265736
0.6396959186856451 1.1360518796609815 1.9927418147414144 -0.8393031413815417 0.8954587364592884 1.8310954272322988 -0.9885799082923286 -2.238233928250181
-1.307493196755175 -0.2844620516989915 2.205374332177353 0.3789745595457756 0.4656279285323684 -0.3952386645412071 0.14934146425933795 -0.4636830856780835
-0.38860668420767663 0.7934249379543985 -0.9085326627514838 -0.1251301033581027 0.8645090068927991 0.7824481979969632 0.8037845051821505 1.295237307005673
0.5586494728699467 -0.6144653370198839 -1.112529348540626 -1.567032285797817

b1 f8 [1, 10]
00000000: 4c6f 4d16 9be3 7c3f cfac b716 c212 ae3f
00000010: 19c5 1cd1 c74f b83f d330 e58d b3e5 bdbf
00000020: 2eeb cc0f e56e a73f dbb3 6d98 6c64 d63f
00000030: 2ee8 b6c4 188b 26bf 3f2d 23b2 2fc6 c53f
00000040: 8a0c fe3a ca5e 99bf a314 ad3d bf73 b5bf
0.0070529993143642715 0.05873686339676853 0.09496735434801841 -0.1167862149642958 0.04576793496968033 0.3498794067916699 -0.00017199208592250228 0.17011066625705415
-0.02477565751133829 -0.08379740958942476

w2 f8 [10, 6]
00000000: eafd 0997 33ec f73f 9e75 7531 43f7 d0bf
00000010: 28dc 105d 5e28 b73f b218 ba33 cdc5 dbbf
00000020: a2e5 4b94 6b64 d63f 4114 8433 6579 bebf
00000030: e8b6 e4f3 aa83 dabf e0ea 67c8 8144 e13f
00000040: e7eb fde6 30e2 e5bf 64eb b90a 98f1 e2bf
00000050: 93d5 0e3f 2899 d1bf 24ca 8c64 2267 01c0
00000060: 0b78 d1f3 f7df be3f 09b1 c142 1184 c1bf
00000070: 6b9f c82a 0104 f0bf 7294 ce89 ede5 dfbf
00000080: 6f83 023b 9726 c03f cd12 0e5c 8923 ef3f
00000090: ffdc 1c71 93e4 e13f 26d0 1e59 a9f9 e7bf
000000a0: bdb6 47d4 7a67 ce3f b9a1 1891 4a5e f53f
000000b0: 2f60 bbca 3b1e ebbf 5bcd 34cd bb7e dd3f
000000c0: 1022 519b fa4c e03f 088b 88d1 b1cb e7bf
000000d0: e8a9 60e5 3b49 e13f d7bd 3a0b 2933 d93f
000000e0: 20ab a320 2a9b da3f ec22 19d6 4ec3 ecbf
000000f0: 0dee e81e 74e2 fabf 0469 5999 6a21 d43f
00000100: d2f2 98a8 76db f03f 7848 cf27 c81b d5bf
00000110: b725 ce5c 6946 fcbf 3bdb cc51 0c65 cbbf
00000120: e877 9bdf 520e bd3f e71b f0a8 7e79 eabf
00000130: 4bd6 e463 d9b6 e0bf 4b47 6bd7 fa10 f1bf
00000140: 6b80 c481 9f24 cb3f 64d0 030f d8c4 f1bf
00000150: 89eb fa56 9d4f f0bf a345 5d81 0c86 efbf
00000160: aaab 628f 7dbf f13f cddf 7151 fc9c 04c0
00000170: 6c0a 4a14 b101 dc3f 30e4 d0cb f87a e53f
00000180: dd06 ba93 b6ed f0bf dcc6 56f4 c328 8c3f
00000190: 8ed6 0216 6f83 f33f 0915 3a94 452d f43f
000001a0: 6d79 8271 99b3 ed3f c144 6362 c2b3 efbf
000001b0: 61e0 0677 ffc2 dfbf e3f0 7dbe 7f9b d6bf
000001c0: ed5c c510 31e5 01c0 80b5 87a0 e6d7 f93f
000001d0: fc1b a1b3 4877 d13f d2dc 3e26 5995 f9bf
1.4951663875543724 -0.2650917037006709 0.09045972606769281 -0.4339478497644321 0.3498791645248166 -0.1190398455401729 -0.4142863637706413 0.5396126665285372
-0.6838612090645001 -0.5919914445397407 -0.27497297437670304 -2.1753585677590923 0.1206049890765543 -0.1368428779563902 -1.0009776755559538 -0.49840868432722296
0.12617769605006 0.9730879590939253 0.5591523370011656 -0.7492262592918493 0.23753295293083979 1.3355203311749462 -0.8474406203849919 0.46086020507501296
0.5093968423398696 -0.7436150639008199 0.5401896934538941 0.39374757858874204 0.41572049319681703 -0.8988413030247933 -1.680286522618988 0.31453957534326116
1.0535799585188 -0.3298206700102422 -1.7671903252797685 -0.21402124399329545 0.11349981269037779 -0.8273309039658415 -0.5223204566052088 -1.0666454710776232
0.21205514751727902 -1.1105576120871996 -1.0194371602690089 -0.9851133848807659 1.1092506028169091 -2.576653133666673 0.437603254140561 0.6712612133770843
-1.0580354471753062 0.013749628919728911 1.2195883617218075 1.261052683841003 0.9281737534509326 -0.9906932756076899 -0.49627672790257377 -0.35324090578775563
-2.2369099912863164 1.6152101774890468 0.27290551702429844 -1.5989619726149624

b2 f8 [1, 6]
00000000: e885 a20d 3d9c 7cbf cc85 a900 86d7 923f
00000010: f8bc 701a f42a b03f d96a 4274 7e39 a9bf
00000020: 5535 fa23 62a6 b13f d8a3 e902 630c 78bf
-0.006984938134480846 0.018400281706254337 0.06315541883008169 -0.049266769115282556 0.06894505861619867 -0.00587118793792115

w3 f8 [6, 1]
00000000: 7f55 41e4 5749 c53f 794e 7571 1e0d f83f
00000010: 9d35 cb07 4ea1 e33f c299 0f53 160c d6bf
00000020: 2539 8e5b 3c92 02c0 27a2 2c83 7b81 f2bf
0.16630076070093122 1.5032028610193306 0.6134405281278991 -0.34448774444026864 -2.3214041855600436 -1.1566119312284486

b3 f8 [1, 1]
00000000: 63b5 68a3 3c8f c43f
0.1606212423225016
