models/modelo_mlp.npz (npz, 2582 bytes, 6 tensors)

w1 f8 [6, 10]
00000000: b1a5 52dd e59a db3f cf7b 7a29 f16f dd3f
00000010: 0504 8ad3 c2c5 fc3f 05a6 4409 02b3 d5bf
00000020: dbd3 2d6e 949c f13f 151b d3c1 b3d9 b43f
00000030: 67ba 2a01 953b 07c0 670a 13e7 5f61 e5bf
00000040: dc4c 0393 233b e53f 94f4 f0f6 655f e3bf
00000050: 6fd0 a3c7 d366 c7bf 7aa9 1150 8ae0 bdbf
00000060: b57c a5ed a9bd d43f b502 9d2a bbe2 e8bf
00000070: f133 9e5c a27a c0bf 83c8 dd44 cd60 f1bf
00000080: 9748 a485 25a1 f93f 7809 faf7 0188 babf
00000090: b6af 5fad cff8 eabf 8baf a89a 52f5 e7bf
000000a0: 18fb 1cc0 2fe9 02c0 6c0a 5685 6673 df3f
000000b0: e3ac 934b c2c9 df3f f104 a1c4 43ad f83f
000000c0: cbf8 576c 297e eabf ab93 cb5f 2aa0 c8bf
000000d0: 2ee5 b774 9895 733f d359 fc98 5073 cf3f
000000e0: 7003 ba95 a4d9 fcbf 3655 4a2c ac9f d13f
000000f0: a597 3dc1 3a93 fd3f 1696 4ab3 cfae f33f
00000100: 0d98 e303 aa15 d33f 3d93 18c6 3518 f63f
00000110: 5c64 2f63 1890 e7bf b644 997a 7133 e6bf
00000120: 7ae5 ae5a d813 0340 ac94 980e e9cd e53f
00000130: 2f12 9e67 9aab f6bf ad73 994c 5268 f3bf
00000140: 21d7 8631 549a d13f 7b65 98a8 f17e efbf
00000150: 8c5f d387 5771 e83f 6689 c799 5719 f6bf
00000160: d08f 58cf e01e f4bf 4efa 9e2a 5101 bebf
00000170: 4d75 5b6a 8f5a d63f 55b3 ce8f 6fd1 e4bf
00000180: b15d cde7 a658 e7bf 3e1f 0fcd de49 cf3f
00000190: 30c1 4c90 64ea a5bf 8f33 b761 7249 a1bf
000001a0: fcad c3af 277e ecbf 4ef9 2acb dd66 ffbf
000001b0: fe83 7eda bb4d fe3f 41d5 2fcc dd4c e4bf
000001c0: afb6 1506 045b ef3f 517d 9bc4 4621 fd3f
000001d0: 4a6c f4d4 26d3 ec3f d497 527d 34f6 abbf
0.4313292180400721 0.4599573998511319 1.7982815039870286 -0.3390507784375532 1.1007274917476397 0.08144687158629112 -2.904092797390422 -0.6681365502520976
0.6634691115708864 -0.6053953002043664 -0.18282553909341767 -0.11670746283349401 0.32407615859660704 -0.7776771385470825 -0.12874249956476505 -1.0861332597819746
1.601842424428957 -0.10363781265372107 -0.8428724657255688 -0.7486966152841757 -2.36386060799067 0.49141848584273506 0.49668938999702855 1.542300956804237
-0.8279006115042419 -0.19238786389828752 0.004781337290745298 0.2457066294670783 -1.8031354759879967 0.2753706390879701 1.848444704862666 1.2301785472458326
0.29819727306164695 1.3809106577038641 -0.736339753838489 -0.6937796968942596 2.384690006697096 0.6813855443075645 -1.4168952987248635 -1.2129691116490264
0.275044487348497 -0.9842460911633418 0.7638356831403015 -1.3811870581635843 -1.2575386142207101 -0.11720759668876576 0.34927735697222745 -0.6505658920992611
-0.7295717742335254 0.244441843153476 -0.04280390035126158 -0.033763479641130016 -0.8903997834108277 -1.9626138626332081 1.8939779791764972 -0.6343831050896044
0.979860317119991 1.8206241302467172 0.9007753524086948 -0.05461277036492587

b1 f8 [1, 10]
00000000: 3071 1675 bfc4 913f 35ed 4775 63de c63f
00000010: ea7b 9d14 fd78 753f 0cb8 8e6b bcae a5bf
00000020: 0c32 5f11 7ece ae3f 111d 55a6 8beb c0bf
00000030: a7fd 13d6 f7f4 a5bf c499 60db 9a65 a9bf
00000040: dc57 63cb d631 a13f fa2d 7727 640f b93f
0.017352096101249603 0.17866175867661985 0.005242336841404497 -0.04234875500638688 0.06016916238840872 -0.13218827840521688 -0.04288458336122441 -0.049603308944188323
0.033583366706508605 0.09789110148920335

w2 f8 [10, 6]
00000000: 0223 a45d 0e20 f9bf f5c1 966d 3eed a9bf
00000010: a25e 917d 92bc cfbf 9c29 357d ef8d de3f
00000020: 3a7e a814 5dc0 d23f 7c4a bbe0 77fa c3bf
00000030: 60f9 d0bb e24c c6bf 837e c750 f354 f4bf
00000040: 64a3 9e27 000f f03f 905b c8ab ff96 f13f
00000050: 8035 4427 dd64 e8bf 038f ee80 b47b e3bf
00000060: a143 126e 4be3 06c0 24d1 374b 5402 f93f
00000070: a4ea c78e 624f dc3f 7237 9a79 3306 edbf
00000080: 51c7 e817 b1fa ddbf 6248 8c83 036c fabf
00000090: c2d7 ba4c 9bc5 a2bf eb2d 1f58 aae4 e63f
000000a0: 4532 438b 4554 de3f 9547 098d bd63 02c0
000000b0: 146b 3815 1f75 fa3f 9d30 2e7e df24 f4bf
000000c0: 78f4 6226 8d60 f23f 2bfa 178f bbf6 e5bf
000000d0: 747c 79cc fc73 e53f 3242 be2c 0908 e4bf
000000e0: e08c 9eb2 364e f23f 88e1 1426 47bb e7bf
000000f0: 5d0c 3b5e 5c33 ff3f 1f98 77ae 33ac e7bf
00000100: 9268 c203 3898 cabf f724 c9b4 0421 f53f
00000110: ca29 b081 7934 e43f 6ed3 bb59 79fe 7fbf
00000120: a731 ed58 8013 e5bf aad2 350e 43b5 e73f
00000130: 0e9f da07 2ec9 b03f a77a ac11 ca9a d0bf
00000140: e282 7680 224a dbbf 0dbf 5505 8597 cfbf
00000150: b9d5 5f5a 0bda e0bf 64ae c628 91cf c63f
00000160: b40e 2ec1 9915 d2bf e8d5 2830 dc83 e4bf
00000170: 35f5 b73f 46c8 f1bf 8059 d95e bb24 e8bf
00000180: ec52 2212 233f f7bf 0c49 e565 67dd e33f
00000190: 9217 4b4f 1642 c63f b33a fc4c e158 e4bf
000001a0: 8e48 7203 05da f6bf 006f cc9c 79c8 d7bf
000001b0: 2e7b c359 35cb f23f 57fe becd 2ee7 f93f
000001c0: 3106 76f0 b9cb d13f 05f3 f101 ae84 e5bf
000001d0: 6dfe 94ad ceca fabf 0864 5cd3 b00d f73f
-1.5703262002809315 -0.050638152005721006 -0.2479422677158612 0.4774130556803813 0.29299094216728216 -0.15608118508551516 -0.17422136469572091 -1.270739856285133
1.003662256969812 1.0993649206409124 -0.7623124854014094 -0.6088507192802982 -2.860983714992884 1.5630686701015941 0.4423452753395998 -0.9070069670722047
-0.46842601141826373 -1.651370538577361 -0.03666386901515707 0.7154132577065274 0.47389353370525483 -2.298701383443538 1.6535940960808988 -1.2590022019312876
1.1485721110796288 -0.6863687319562976 0.6704086297649057 -0.6259809373751237 1.1440951325719695 -0.7416110748081772 1.9500392609486632 -0.7397707374154868
-0.20777034934582567 1.3205611288015555 0.6314055951091231 -0.007811044717290423 -0.6586305367323363 0.7408767011207449 0.0655697602438716 -0.25944759107543763
-0.42639982743462046 -0.2468115116166633 -0.526616741669094 0.17820944300671038 -0.2825683962366654 -0.6410962048163897 -1.1113951195723761 -0.7544838764686546
-1.4529143055307783 0.6207768430852254 0.1738918196844535 -0.6358496192568367 -1.4282274374604955 -0.371611025928118 1.1746114260092315 1.6189411198573873
0.2780594681026712 -0.6724462545385853 -1.6745135098025472 1.4408424621854028

b2 f8 [1, 6]
00000000: a31d b353 7619 88bf de30 9cd3 0804 b6bf
00000010: 4f53 8699 dc35 c03f f686 11b7 ff2f 96bf
00000020: 1b68 969d 7e81 b3bf 7a03 fe5d bdc8 97bf
-0.011767315320311783 -0.0859990612627288 0.12664372917483965 -0.021667476223575975 -0.07619468066550932 -0.023226698743659104

w3 f8 [6, 1]
00000000: 9c41 1298 6444 e73f b022 c842 480e f9bf
00000010: 9eeb 659f ecc6 f63f 6766 f33a 4af1 bf3f
00000020: c30c 1dac ac5a f3bf 6305 4080 a2a9 f7bf
0.727098748220715 -1.5659868820822958 1.423565504692966 0.12477554263332423 -1.2096373294050842 -1.4789147386330448

b3 f8 [1, 1]
00000000: d061 298d 4807 a83f
0.04693056796230943
