models/modelo_mlp.npz (npz, 2582 bytes, 6 tensors)

w1 f8 [6, 10]
0	0xbff2c26d05fb16bb	-1.1724672540307626
1	0xbffeab8ed094aa5a	-1.9168842456516786
2	0xbffff471c3da11ed	-1.9971788073026986
3	0xbfdf169e69a392f7	-0.4857555419569474
4	0xbfc3d3e089e1e16a	-0.15490347607170502
5	0x3fd1e16947e73412	0.27938301107207153
6	0x3fe11b854dca52dd	0.5346094626753161
7	0x3fcb6f8dceee8286	0.21434185604177375
8	0xbff986ad4cdd57ef	-1.5953801157497727
9	0x3fe3ff076cf94c0c	0.6248814705271584
10	0xbff10d0e6d8203f1	-1.0656875875140452
11	0xbfcb9a2760f120d5	-0.2156419013356358
12	0xbfe6090c1cb53cc3	-0.6886044083311379
13	0xbf9422046cf72000	-0.019661015654293124
14	0xbfd086814af3299b	-0.2582095367366947
15	0xbfd1f775d49b6db8	-0.2807287765733366
16	0xbfef9f61bc28d486	-0.9882057833662123
17	0xbfcfe95792dc60ee	-0.24930853529873026
18	0xbfc95e1f8710bcdd	-0.19818491072644565
19	0x3fe955b30f350b20	0.7917113587394375
20	0x3ff51b04f04e63e6	1.3190965067826652
21	0xc000d040fdff904e	-2.1016864627472733
22	0x3fe9e84339d87f23	0.8096023683355934
23	0xbfeaf91593493d9b	-0.842905795734555
24	0xbfcf38ac1f790956	-0.2439170030284667
25	0xbfe94907d6240bd6	-0.7901648695409402
26	0xbfe52e82b53721f4	-0.6619275607454811
27	0x3fd5463be400dff7	0.33241173997839674
28	0x3fefe476b63a8a0d	0.9966386374620143
29	0x3fc859b0363d6f0a	0.19023707054554279
30	0xbfe1836bf65c913a	-0.5472926913976501
31	0x3fe7ab06a346b115	0.7396271885859586
32	0x3fc34dbd18653503	0.1508098954313156
33	0xbfe04044ffc0e94a	-0.5078454013048852
34	0x3fe67725fe5c4f13	0.702044483945857
35	0x3fee2cd26910b082	0.9429714252523953
36	0x4001accea4ee0c19	2.2093785176416643
37	0x3fc0a531f6a50f06	0.13004135649872967
38	0xbfe77e63c5ba343e	-0.7341784345495694
39	0x3fe41446082de236	0.6274748000860828
40	0x3ff6692cbb60ee13	1.4006774253347245
41	0xbff7bcddbaa4a28b	-1.483609894823675
42	0x3fbadd83a9e6247e	0.10494254014897028
43	0xbfc8f8867a11aa53	-0.1950843902626099
44	0xbff9292c78c644dd	-1.5725521772149513
45	0x3f90f6cb4030e10a	0.01656644419947021
46	0xbff1834144daadd9	-1.0945446672075063
47	0xbff15b31bfb41ad0	-1.0847642410678198
48	0x3fed9c597b00c0c0	0.9253356363679117
49	0x3fe9733a7c035d7f	0.7953159734851595
50	0x3ff272f56de273b2	1.1530660908094714
51	0xbfdf6cc10b215d4e	-0.49101282202669416
52	0xbfb2c70f65941a1a	-0.07334991674370209
53	0x3fded352dce22af7	0.4816481740059965
54	0x3fe8ebb390e2b528	0.778772147159235
55	0xbfb4477b6a9851d5	-0.07921573021332702
56	0x3f9bbe1f6edfd0b7	0.027092448370198165
57	0x3ff8d29e5d3a3bc5	1.5514205590913985
58	0xbfb2b185a9cabdc1	-0.07302127261458848
59	0xbfc99e7f779024d7	-0.20014947259941238

b1 f8 [1, 10]
0	0x3fb30c366be0e3dd	0.07440509923698309
1	0x3f9545ba863fcb00	0.020773806041641585
2	0xbf946f5703d0c377	-0.019955978019598555
3	0xbfb0eece49e8b2b1	-0.06614388756197333
4	0x3fbe0be60d32df6c	0.1173690588210527
5	0xbf9a5000a760b49f	-0.02569581052391767
6	0x3f99824f8684c172	0.024911158166277265
7	0x3fb973c22a532c5a	0.09942258389780659
8	0xbfabf6747a836dec	-0.0546146773865209
9	0x3fa0b9b89e7ea89d	0.03266694006681912

w2 f8 [10, 6]
0	0xbfe5d843292e38c2	-0.6826492122943579
1	0x3fbae74c4e02dc1b	0.1050918283898316
2	0x3ff3f080a7a0ecda	1.2462164447777497
3	0x3ff499689ec5c26e	1.2874532892275528
4	0xbfc8385b883f5afa	-0.18921989586552695
5	0xc00475456bc65f88	-2.557261316291207
6	0x3fb90e5c8c1c768c	0.09787538929637146
7	0xbfd0468e6764706f	-0.25430641266735327
8	0x3fe20d887d4ef1c8	0.5641519973210558
9	0x3fef62f8270df919	0.9808312189850624
10	0x3fd3c2ba6d87b3ca	0.3087602681760556
11	0x3fe301bef55b4283	0.5939631263846227
12	0xbfebf37990928c0d	-0.8734710525208144
13	0x3ff842d767eb741c	1.5163187083592282
14	0x3fee835681710168	0.9535324600365529
15	0x4000d7fa6ac75431	2.10545810147098
16	0x3ff015f407828db0	1.0053596776350382
17	0x3ff2052a76fc8694	1.1262612007052768
18	0xbfd358b0cfcf603a	-0.3022882489581239
19	0x3fc9087140baa1ec	0.19557014141652418
20	0xbff2b9b36c3477f4	-1.170337126422507
21	0x3fc6f135497a29f6	0.17923608863596002
22	0xbfdb77679529660f	-0.42916287962506855
23	0xbfea78bf4e45e09a	-0.8272396591919631
24	0x3fdd7a872efe4f51	0.4606035193366909
25	0x3fb5b27eb7a376f1	0.08475486739504469
26	0x3fe09c68fd868b78	0.5190930320426181
27	0xc00319fed42b6ef6	-2.3876930785899004
28	0x3ff1598b27177244	1.0843612219824914
29	0x3fdce63fd33bc6d2	0.4515533030345128
30	0xbfdbf30ab62a745f	-0.43670909680969844
31	0x4001896b07ba28d2	2.1920986751257283
32	0xbfbb690d13f9b7af	-0.10707170236284357
33	0xbfcfdbda53d3b1c9	-0.24889687626945392
34	0x3fe94fb0b08b4464	0.7909778068661919
35	0xbfee53618386b464	-0.9476783341284656
36	0xbff576b42be73e72	-1.341480418679478
37	0xbff5cdaf75d8d4f8	-1.3627161601446556
38	0xbfffa62343ae49f0	-1.9780609744817603
39	0x3fec9c13747e7281	0.8940522456428682
40	0xbfef984c08bbe41d	-0.9873409433922721
41	0x3ffa1969f1d2bf87	1.6312045522899739
42	0x3fef248fc432d7c4	0.9732130844120026
43	0xc00199647839fe52	-2.199898661870784
44	0x4005ecb503cf9d44	2.740579633496653
45	0xbfdfb0f5cd2a4b3e	-0.49517579112687204
46	0xbfdc8f75e151dcb6	-0.44625613216289695
47	0xbfd7e3015e1b5c73	-0.3732303065311903
48	0x3fee870736819ec6	0.9539829315735566
49	0x3fb298eba1b5b281	0.07264588068000856
50	0xbff2e18451eb12b1	-1.1800578308040424
51	0x3fc724571c04cffb	0.1807965170679607
52	0x3fc5a04634e60e73	0.16895368178312573
53	0x3ff51b25fc638677	1.3191280230461453
54	0xbff2db0806fe86e7	-1.1784744523251278
55	0xbfc2d3b9559f42e1	-0.14708630257384583
56	0xbfec28f08dacc28b	-0.8799975173079287
57	0x3fe60ff6e8856fc0	0.6894487897329711
58	0xc009cf12150fc9be	-3.226108707947076
59	0xbfdcaa03cfa3e534	-0.44787688519825797

b2 f8 [1, 6]
0	0xbfc0141e969f8534	-0.1256139979805454
1	0x3fa014dd761dec11	0.03140918795448767
2	0x3f4ff3f648eee823	0.0009751274645772894
3	0x3f8762ed64fdb4aa	0.011419157642843143
4	0xbfc39bd0308b1576	-0.15319254274633537
5	0xbf742341f31bfeab	-0.004916436782650339

w3 f8 [6, 1]
0	0xbfd3c360a929199d	-0.30879990119538
1	0xbfd675a033ef75fb	-0.3509293086225111
2	0x3fe0a42756b4f4f0	0.5200382894032867
3	0xbfed6adffdb6b998	-0.9192962603900012
4	0xbff2eca8e5a21f94	-1.1827782602358399
5	0x3fd05d953289d827	0.25571184096713967

b3 f8 [1, 1]
0	0x3fdb2c74de5aea16	0.424588410514532
